hw1/model_NO_square10000000.npy (npy, 1384 bytes, 1 tensors)

array f8 [163]
00000000: 5b53 0245 7221 da3f 0e31 1c47 741f af3f
00000010: cea6 b94c a496 c1bf c9ac 45b0 c041 c73f
00000020: 7409 3657 79d0 d0bf f165 1dbe bfad 7abf
00000030: 376c 8987 f53a c43f 558d d899 03c7 b0bf
00000040: 8fcb 96e5 fa0f d1bf fd24 6020 38c2 d43f
00000050: f326 7975 33f2 f7bf 8676 4444 dddd e13f
00000060: 1306 d6e6 e58e eb3f 4cd0 8de1 3291 cc3f
00000070: 2840 32e8 2d0f c0bf edb8 567c e1f1 d33f
00000080: 9db2 7c14 a2e0 efbf d14c 1a47 1a1e eb3f
00000090: 2915 c965 6209 0b40 0596 237c b7ec c43f
000000a0: 99ca d846 6446 b5bf a289 ddb3 76c5 c83f
000000b0: 43b7 06ae 279f dfbf 1eac 7e60 5ac0 dd3f
000000c0: 535a 579c 689f b1bf e0fa 67b8 0cb2 e0bf
000000d0: ce5e cd77 7f04 d03f 4ee8 a1ed d6d0 f33f
000000e0: 44eb 0d0d ab38 00c0 47b0 fab2 e0f6 0840
000000f0: 8c9f 9f16 26e4 01c0 f0ec 7c76 f010 0240
00000100: 632a fb01 a890 0940 6b2e e317 505e 11c0
00000110: 1c21 a423 4958 f13f 2c24 63dc 01bc f23f
00000120: 1110 d1d3 ba75 c23f ac76 2286 5a0d a93f
00000130: a364 2386 1b9c a53f 70c1 1a57 f97c bb3f
00000140: 045a 158a b127 ddbf fef8 6031 93ae cabf
00000150: 8ea6 6794 5e50 d0bf 1d3a 90e6 543f 91bf
00000160: aa68 79b0 2c20 cfbf 4fee 57e2 bcc7 d3bf
00000170: 77c6 ce86 8093 aa3f 939c 0bce a256 93bf
00000180: 5a20 f4d7 c1eb a1bf 8a40 f1c4 e1ba dcbf
00000190: e8c4 36c5 bdc4 cebf 3e71 5ae4 69b7 c5bf
000001a0: 7df6 5273 6b2b b7bf a0b2 a7e5 4452 dcbf
000001b0: 613e 1639 04f7 903f 803f 3bbb ecaf 85bf
000001c0: f63d 9c70 55bc b0bf f4bd c96d 6ded 953f
000001d0: af1f 5ee1 1914 db3f cf65 58c3 870e cc3f
000001e0: 8ca8 cbbd 0232 c73f ece2 9d98 1fb8 a33f
000001f0: 1118 3bf1 2b64 d63f 96bc df01 e6c2 d03f
00000200: fc48 6d50 aeef 343f b4ab c0fd 81af 8b3f
00000210: 18dc 903c 092a 84bf 0004 324b b4a3 93bf
00000220: 676c a9fc 1002 5a3f 2fa0 5bd8 e41a a1bf
00000230: 35df c07c 56ab 94bf 3718 f6be bd88 8cbf
00000240: f935 be08 a734 b93f 92a9 3c82 2e41 813f
00000250: e0aa ce87 4299 823f 72b5 5b00 aa2d 9fbf
00000260: 2ad4 9999 efd4 a53f b160 0127 97d3 7fbf
00000270: 50f6 2464 9129 a4bf 41ec 5f60 b7ea a33f
00000280: 8036 07f0 39f9 62bf bc5e b4d9 6cd7 a13f
00000290: 01d9 b948 4447 a2bf 43f6 64d4 4346 8abf
000002a0: 268a 2424 1c7b cb3f e5ba 7e7d 4634 cebf
000002b0: a236 4dc0 ffbd 95bf 12c1 845a 257e df3f
000002c0: fbbb 91da deca e1bf ef90 12c3 f5bb 983f
000002d0: 6ef2 fdb1 1a7e ee3f 0051 c5e4 5241 a33f
000002e0: 78ea 02fa f440 84bf 75d4 3b86 c2de a7bf
000002f0: 3f87 ff3e 2e8e 853f ca2d ab80 57a9 acbf
00000300: 606c 5202 9af1 a83f 0ed3 3668 82cb 913f
00000310: 3219 a780 99b8 a4bf 3fc9 148a c0c8 b3bf
00000320: a00d 77bc 9590 82bf ca86 979a 8e0e 933f
00000330: cc34 4659 0499 9a3f ae16 8457 ce01 b0bf
00000340: bdd9 4c0c a595 a6bf 57b4 8aa6 f879 b53f
00000350: c5bd 22f7 bc02 b8bf 4225 3185 a460 413f
00000360: 731a f89e 8a7c aa3f d045 ac64 aa51 d2bf
00000370: ef18 b422 ff41 d53f bca1 d4a3 fcd1 b2bf
00000380: 16f1 a40a d944 acbf f96e 4b58 656f 7dbf
00000390: 35ce bb6c 4d69 ab3f 422f 4e5a 7e7b bdbf
000003a0: 7d27 bbdb fb40 c23f da5b cc46 20c2 c23f
000003b0: 42c9 cc2e c0bb ee3f 88ac 6e21 7d4c f3bf
000003c0: 7ad6 85eb a238 e13f ee76 2494 f520 fdbf
000003d0: 6927 22f8 9e64 e0bf 0765 e593 953f f63f
000003e0: 9d5c 56cb a9c0 c03f 6998 bc08 b973 f7bf
000003f0: aadb f111 f2fa cabf 364c 7c83 8aa7 3dbf
00000400: adc0 9f29 bbd2 683f 6d31 4d15 1fd1 34bf
00000410: e9cf 83ef 7892 5e3f 591e c7a8 73fc 3f3f
00000420: 7ec2 1177 2a09 5d3f 4183 a639 59a8 64bf
00000430: 455b 91ab b157 533f 5343 969f 41ea 313f
00000440: 0887 c4fd 9cbb 60bf c7c0 e6ad 8399 51bf
00000450: 4641 b203 d411 4c3f 86c6 93cb 2a7b 5fbf
00000460: b729 5a72 dbc2 393f a81d c4f3 b829 d5be
00000470: c0b9 b5bd 3001 fabe 047f ba39 e7b2 63bf
00000480: 600b 90a6 d1ad 3b3f 302e cc52 e372 c7bf
00000490: 1881 16b6 ef2f c0bf c3fa d736 725e ce3f
000004a0: c823 e025 e4e9 b33f 3c5b 2fc7 8fc2 b8bf
000004b0: 4543 5231 7d37 b4bf d2bb 49b8 7cf8 9fbf
000004c0: f135 0931 c8f3 60bf fe68 cb48 38f0 bfbf
000004d0: 5c60 145b 96fd 8fbf fdea 4421 96c5 c63f
000004e0: bcf6 5ad5 8c8a c1bf 6201 f96f 598f cbbf
000004f0: 72d6 d978 3172 adbf f420 f5cc f6b5 d53f
00000500: 7f1c effc 51c0 6cbf abc4 c378 4f1e d4bf
00000510: 3747 637e 44f9 c83f
0.40829140414398574 0.06078685157817364 -0.13740972277019242 0.1816941128448433 -0.2627242423697205 -0.0065133562037202756 0.1580492889214342 -0.06553671365741327
-0.26660034580998454 0.3243542019050237 -1.4966311062620974 0.5583330472324668 0.8611936100498404 0.22318111432434973 -0.12546323621472877 0.31163823263604123
-0.9961710357798271 0.847424639580277 3.3795822097769315 0.163474021544218 -0.08310534219416822 0.19352611334313702 -0.4940890502428951 0.46486529753991757
-0.06883863274502149 -0.5217345811541598 0.2502745313590652 1.238486221553575 -2.027670003878855 3.1205457670930943 -2.2364007728064674 2.258271146476197
3.1956329493307734 -4.342102406731651 1.0840541259986542 1.1709002121808778 0.144217828203296 0.04893000495324648 0.04220663082532752 0.10737570168089916
-0.455547699782443 -0.20845260535310922 -0.2549053620592553 -0.016843153545830093 -0.2431693898859682 -0.3090660295854137 0.051906601387043 -0.018885177446375478
-0.03500180970337459 -0.4489063666596925 -0.24037906770312323 -0.16965984010756502 -0.09050628247765675 -0.44252130915882937 0.016567293152148447 -0.01058945604691508
-0.0653737449576893 0.021413526369029115 0.4231018734794771 0.21919343031258484 0.18121370570526485 0.038514125232671365 0.3498639922876246 0.2618956583309652
0.00031946187703114893 0.01351834827081242 -0.00984580246050197 -0.019179169740258573 0.0015874067199977083 -0.03340830937469296 -0.020184851993888493 -0.013932688131500821
0.09845966304256838 0.008425105428234745 0.009081382531652193 -0.03044763209520824 0.04264019727717312 -0.007770147742199794 -0.03937963817086809 0.03890011836480101
-0.0023161059946009144 0.03484668881918426 -0.03569997203605802 -0.012829332274686972 0.214694516799754 -0.2359703171509501 -0.021232601272734748 0.49207433547691537
-0.5560144680911202 0.0241545105278797 0.9528935886770122 0.03760775606738953 -0.009889520530454762 -0.04662139786334133 0.010525094316054527 -0.05597947545683331
0.048718273909991394 0.017377889261939443 -0.040470883326224075 -0.07728198405383056 -0.009064836324688852 0.0186102182250412 0.025974338482730272 -0.0625275577222861
-0.04411044860028166 0.08389238420450461 -0.09379178079210877 0.0005303195306477842 0.05173142614880968 -0.2862344725736792 0.33215311421407895 -0.07351664542932829
-0.05521276717124317 -0.007186313513297676 0.05353776886286391 -0.11516561226579561 0.14260814885193077 0.14654925782153222 0.9604187883435673 -1.2061740213346486
0.5381636238150371 -1.820546702081113 -0.5122828337054958 1.3905235078039497 0.13087961605626655 -1.4657526341702811 -0.21078325153550043 -0.00045249110870421454
0.0030301719207202677 -0.0003176403891316435 0.0018659764301078802 0.0004880697604474397 0.001772204847181907 -0.0025216810874585664 0.0011805758533875593 0.00027336218007527785
-0.0020425859676301873 -0.0010741983347593452 0.0008566174723388185 -0.0019214551851373398 0.0003930841215626051 -5.045647238916864e-06 -2.4799966792549274e-05 -0.002404643642719752
0.00042234772132603536 -0.1831936029706056 -0.12646290198336696 0.2372572677413328 0.07778764652915904 -0.09671877491869635 -0.07897169546255352 -0.03122134089283774
-0.0020693693152569127 -0.1247592141839142 -0.015620398191956202 0.17790485977624107 -0.1370407144331035 -0.2153121754399861 -0.05751185035925922 0.3392312051332873
-0.0035096741989693587 -0.31435000222615866 0.19510704203872262
