hw1/model_best_square10000000.npy (npy, 2680 bytes, 1 tensors)

array f8 [325]
000000 bc f9 bc ff 2d 6f a0 bf 0e f0 19 c0 22 20 85 bf
       -0.03209823366931938 -0.01031520031687452
000010 47 b5 cc 4a f9 e3 81 bf c9 91 da 88 cd 91 53 3f
       -0.008735606761173144 0.0011944300817186995
000020 8f 9d f9 93 65 da 6f bf 41 bb ef e1 da d2 87 3f
       -0.003888319391808621 0.011632642765076919
000030 e4 c7 4a e1 1f 2f 90 3f 4c 2a 60 80 d1 bd 92 3f
       0.01580476582120828 0.018302224598338676
000040 de 30 13 65 28 3d a1 3f ed 08 e2 94 79 e5 a5 3f
       0.03366972192597627 0.04276637976092155
000050 6b f0 b2 6f 30 63 b4 bf b6 c0 64 87 fd c7 a1 bf
       -0.07963850714708236 -0.03472893026116834
000060 5b 3a 38 9e fb c8 8e bf 60 7c 3f 18 3d 2e b3 bf
       -0.015031781927089918 -0.07492429582588178
000070 80 ce 64 fa b4 9b a7 bf 2f ca 95 28 73 cd a0 3f
       -0.046109824720045545 0.032817457870710214
000080 43 70 e3 50 d0 33 08 3f 39 35 94 70 1f fb 91 3f
       4.616240959062813e-05 0.017559520002625482
000090 01 25 0d 6f 2b 7f c0 3f 29 7c 21 67 79 22 ce 3f
       0.12888091013363837 0.2354270700043071
0000a0 84 f7 14 ee 8e ee e3 3f cc d4 5b 34 31 7c a7 3f
       0.6228708887135643 0.045869386331028744
0000b0 81 7a 92 b7 d2 02 c3 3f ea 7e 5c 8c c9 33 a3 bf
       0.14852365458951414 -0.037504480728100933
0000c0 f2 57 5d 13 b7 f8 b4 bf 51 8e b0 82 46 0d bd bf
       -0.08192009184617158 -0.11348381701150713
0000d0 1c fe 3f 2d c7 97 de 3f 37 cb 2f 4b f0 51 f6 3f
       0.47801379603331084 1.3950045525532013
0000e0 cd fb e4 8a 7c a8 8f 3f 79 11 32 37 66 17 c8 3f
       0.015458081234667543 0.1882140893468536
0000f0 4c 85 dd d3 29 c9 b2 bf 6f b1 67 45 f9 ec c2 3f
       -0.073382009720736 0.14785686386984362
000100 09 43 38 7f 97 26 d1 3f 9f a1 06 2c 3b d2 c9 bf
       0.26798045562559075 -0.20172824525549246
000110 26 db 04 f1 f9 26 97 bf 86 3c 32 93 7f 81 b4 bf
       -0.022609620414381436 -0.08010098785074335
000120 c6 cc f7 53 a0 72 9c bf c4 1f 28 67 5d c1 7a bf
       -0.027781014561651295 -0.006532063346192222
000130 d6 f5 83 17 43 20 9e 3f b6 f7 e1 9b c2 a3 bb 3f
       0.029419945059080486 0.10796753221254005
000140 cd 3f 07 b1 00 21 a1 bf 74 e5 7a 2c 5d d2 be bf
       -0.03345491562833978 -0.12039739929141097
000150 96 13 7c e4 77 16 a3 3f 95 c0 2a 8f d4 7a bc 3f
       0.037280794755168475 0.11124924178398239
000160 7c fc 2d 99 50 ee cc bf 1c 60 11 68 f6 35 ca bf
       -0.22602279166673955 -0.2047718055862341
000170 36 4e 9f c7 3b 3f a1 bf 28 9e e2 19 3b bd 91 bf
       -0.03368555843158243 -0.017323420958432006
000180 2b 9f 3d 59 51 fd 88 bf 1e 58 29 8d 6e 1d 53 3f
       -0.012201915298376406 0.0011666850665697013
000190 dc f0 30 a5 89 a2 78 bf 41 78 44 8b 92 ee 99 bf
       -0.00601438300787668 -0.025324144125186136
0001a0 66 46 a3 e7 3a 5c a5 bf 49 98 a9 a7 bb a0 69 3f
       -0.0417192847977617 0.0031284012923605037
0001b0 d1 d4 39 4c a4 18 c0 3f 70 33 31 45 f5 45 8f bf
       0.1257520076939387 -0.015270153211668108
0001c0 b2 0e 95 8e cc f8 81 bf 1e 61 bf a3 93 93 92 3f
       -0.008775327779069062 0.01814108550010573
0001d0 14 1e a7 3d 01 c2 9e 3f b5 18 8d a7 8d d0 96 3f
       0.030036944759357878 0.022279942847739338
0001e0 43 22 2a 5c 69 94 78 bf 3a 5b f7 71 a3 cb 96 bf
       -0.006000911295480696 -0.02226119406790448
0001f0 cf b2 7f 47 ca 4b 4a bf 17 4c 8f 34 4a eb b9 3f
       -0.0008024919216019446 0.10124648841092242
000200 7c e1 99 b1 cd ca 9f 3f 1b 64 17 d2 08 da 94 bf
       0.031047071423445413 -0.0203629854421231
000210 d7 86 79 58 3b 0b 93 bf f8 47 1a 8c 43 64 82 bf
       -0.01859753348833845 -0.008980300629705326
000220 bb 29 6c b0 85 2c 18 3f e8 66 63 11 e9 61 86 3f
       9.221616720026572e-05 0.01092893680872771
000230 a9 7c 2b e7 e5 6f b4 bf cf 78 6a 60 02 b6 95 bf
       -0.0798324288730209 -0.021202122816810495
000240 1a 77 cc 18 5b 90 c4 3f 51 6e 55 2c 7d 3d 64 3f
       0.16065539084314012 0.0024707264698642724
000250 c1 dc 2e 3e 42 0d 5a bf 45 a1 9e e0 60 76 99 bf
       -0.0015900751975388846 -0.02486564036340268
000260 99 0a 20 c6 d9 78 a2 3f 44 51 bf 63 1a 11 89 3f
       0.03607826751251259 0.012239652794882823
000270 23 47 2e d5 e2 5c a4 bf 31 c4 22 f1 0d 1c 96 3f
       -0.03977116443924291 0.021591394274484258
000280 bd 22 a3 41 8f 05 a1 3f 6d 77 76 c8 e2 eb 4d bf
       0.033245541345939135 -0.000913129552760001
000290 d9 57 bd ac 29 85 36 3f 5d 28 5e 09 7f 63 7f bf
       0.0003436304802922875 -0.007663246380511604
0002a0 bc 45 e4 39 36 8e c1 3f 3d 66 21 d4 50 25 c7 bf
       0.1371524603533042 -0.18082628591473507
0002b0 fb 25 0d 3c 42 d7 90 3f 22 d2 8d 53 9c fd d6 3f
       0.016446146884197415 0.3592291656453047
0002c0 8d 93 aa 88 ac b5 da bf f5 84 b4 da 0b 28 96 3f
       -0.41733849855727884 0.021637139533713563
0002d0 e3 60 a1 da b8 d8 eb 3f cf 29 cc c6 f4 59 97 bf
       0.8702053327679348 -0.022804093011510148
0002e0 8a 38 79 e4 78 40 bc bf c3 40 e8 ef b5 50 b1 bf
       -0.11035876825300953 -0.06763779742346103
0002f0 0b 66 ca 39 87 e7 b2 3f cc ff 9e 33 7c 60 b5 bf
       0.07384534035590933 -0.08350349674492391
000300 e1 ab f4 ab 79 78 ad 3f 56 33 87 d7 ea 33 93 3f
       0.057559778443042615 0.018752736477654373
000310 e5 92 ed a1 fb b4 c1 bf 4c f3 fc 15 9e 4c ca bf
       -0.13833566099778874 -0.20546318124425011
000320 f9 65 3e f1 b8 f5 78 3f 24 9f 42 a2 69 62 6d 3f
       0.006093714171492953 0.00358696586234321
000330 37 76 57 f4 0e f8 86 bf 81 b9 4d c8 48 5d a0 bf
       -0.011215321380343741 -0.0319617027770276
000340 9e 73 0e 11 87 ce 90 bf 3f 38 70 b3 47 3f 35 3f
       -0.016412840286296075 0.00032420635710728515
000350 82 e1 63 03 24 f8 7f bf cb 08 76 9e 45 81 5d 3f
       -0.007805004765252812 0.0018008403656897705
000360 e3 60 bc 22 a5 22 89 3f 36 7d e8 20 78 bf c3 bf
       0.012273111460260505 -0.1542806778606775
000370 c7 dd 4e 27 6e 28 d0 3f 05 7c 12 6a f4 81 b1 bf
       0.2524676689021956 -0.06838920201924743
000380 5d 96 b0 60 fc ca aa bf 4a 4a 03 57 5b c4 8a 3f
       -0.05232990913672773 0.013069833367272871
000390 f7 32 55 16 e2 34 b5 3f 80 42 6a db 8e b0 bd bf
       0.08283818288073151 -0.11597531182111176
0003a0 d3 37 87 b8 09 48 ab 3f 92 2a fc 57 f0 6e dc 3f
       0.05328398110906076 0.444271169588924
0003b0 00 d3 41 58 47 6b a8 bf 4c 9b 0f 4e 26 59 a1 bf
       -0.047693471454214986 -0.03388328268902416
0003c0 fa a6 69 4c 0d 00 9d bf 09 47 54 a3 40 93 b6 bf
       -0.02832051066290029 -0.08818439471749796
0003d0 a0 c7 0d 8a 9f 07 91 bf 74 35 4f 96 0b 8b a3 3f
       -0.016630642701279563 0.03817020616370828
0003e0 93 6b 0c 4b b9 22 80 3f f9 dd 58 98 e8 dd 9a bf
       0.007878730395125355 -0.02623713903287059
0003f0 2e c4 6f 57 ea 7e b3 3f ea 57 5f 13 60 50 85 bf
       0.07615532526666932 -0.010407209960174375
000400 8e 66 df a4 1f e9 90 3f ea e2 47 21 68 70 79 3f
       0.01651429599573944 0.00621071506292801
000410 0d 08 53 15 82 0a 75 bf 53 3e 0e b3 bf 65 8c bf
       -0.005136974466212874 -0.01386594548401302
000420 8e 02 59 f6 93 20 6e 3f 2d 13 2d 12 ad 18 70 3f
       0.003677643765314826 0.00392978292331207
000430 c7 50 0b d2 73 a9 61 bf 09 c3 20 24 3b 50 62 3f
       -0.0021559965247011956 0.0022355227565856767
000440 4a 81 a7 44 a8 8e 70 3f a3 02 a3 e4 ad 05 81 bf
       0.0040422986007516235 -0.0083116135978128
000450 a6 e5 78 ac 8a 7c e3 3e f3 e8 17 13 c3 c0 6b bf
       9.291882988471063e-06 -0.0033878145266018566
000460 fe 38 3b e2 79 ce 87 3f 04 71 2e 5e 42 c9 71 bf
       0.011624290672810119 -0.004342326402277278
000470 8c 7a da b6 ab a1 84 3f c8 4e 2e 23 51 1d 84 3f
       0.010073987500900182 0.00982154263127856
000480 ce 9a 6c c9 4f 97 8b 3f 7d 35 5d c1 51 39 aa bf
       0.013472197851638692 -0.051218561986938284
000490 30 0c 9c 51 84 eb c5 bf 53 68 7f a0 b6 95 a8 3f
       -0.17124990448800892 0.04801722249222053
0004a0 b0 73 b5 2b e3 39 a6 bf 8a 84 90 d2 22 55 8d 3f
       -0.04341039570383687 0.014322540331763518
0004b0 e3 b4 81 20 02 59 bc bf 2a 3a 5f 7b b3 03 ba bf
       -0.1107331590044001 -0.1016189743233801
0004c0 a1 76 ff 06 21 71 c4 bf de 83 c3 a9 a9 b7 c6 bf
       -0.1597024234933331 -0.17747994221920654
0004d0 b6 d9 f3 37 6d e9 8d bf 95 79 b1 8e 7e 30 53 3f
       -0.014605382223163637 0.0011712299263063376
0004e0 79 62 aa e4 07 30 a7 3f a0 f3 2e d2 0a e9 b4 3f
       0.04528832117393206 0.08168094283514771
0004f0 b9 e8 c5 e2 5a 9d be 3f 63 35 39 87 fe 9f b3 3f
       0.119588547100565 0.07666006852487821
000500 90 52 58 e9 0b 47 b3 bf fb b4 da a8 95 59 c7 bf
       -0.07530283400439886 -0.18242140526618997
000510 97 7a 1f 40 a3 2e bf bf 85 1b 54 84 0f df 64 3f
       -0.12180538478376444 0.0025477698387734193
000520 bf b3 63 18 94 4f 79 bf 1c d9 95 3e 61 96 79 3f
       -0.006179407593873642 0.00624692903635651
000530 d4 db 5e a2 8a c6 78 bf 4b 64 26 ed e9 41 3b 3f
       -0.006048718967511985 0.000415916071824511
000540 fb 01 26 2c 3b ff 7d 3f f1 7c 6b 4a 2c ff 68 bf
       0.007323485510255963 -0.0030513634732042207
000550 d3 09 94 4b dd 13 8e bf 2d 3b 86 79 01 89 84 3f
       -0.014686325901952657 0.01002694275009971
000560 72 8b 66 18 3e b4 bc bf 34 06 b7 8a b4 cc a9 bf
       -0.11212528320042539 -0.05038990205094898
000570 2d 60 54 a9 fb 86 95 bf 07 45 92 b4 2e 3e b4 bf
       -0.02102273198133291 -0.07907382877808199
000580 a1 e4 6f 65 0f ff a1 bf 88 40 c5 c9 93 d7 a1 3f
       -0.03514907944913515 0.03484784925478929
000590 3d e8 be 03 fe 9f 60 3f 1e 1e 03 5b da d4 b4 3f
       0.002029415247275983 0.08137287828423509
0005a0 2d b8 e7 ce 33 76 d1 3f 0e d9 73 9a 95 a2 b0 bf
       0.27283950048047495 -0.06498084088147868
0005b0 c5 23 ca ee 5e d3 c8 bf 77 5d 2a bf 3f 63 34 bf
       -0.19395052585266917 -0.00031109148327731296
0005c0 ca dd 72 af 46 58 a2 bf 71 0e 7a 38 d7 d0 b8 3f
       -0.03582974330623363 0.09693665627315241
0005d0 91 78 6b 5e 05 26 90 bf a1 67 9b 57 51 3d ad bf
       -0.015770038497855913 -0.057108442253322574
0005e0 73 ea 78 1b e1 a0 b3 bf fd 7f 36 24 df c5 c2 bf
       -0.07667357369147414 -0.146663563425136
0005f0 9c 17 ae f2 78 c4 ee 3f a6 23 a6 93 aa 52 e2 3f
       0.9614834537357981 0.5725911029595536
000600 53 80 44 03 84 7d e8 bf e4 eb 0b 49 9f 8e f1 3f
       -0.7653217376537306 1.0973198750859803
000610 95 03 ea f8 f1 b8 fa 3f 5f 62 b5 28 0d 44 f0 bf
       1.6701526377875997 -1.0166141119172136
000620 4f fe 19 7c 36 5f 7d 3f cb 74 a0 a7 9d 0f f0 bf
       0.007170880156649752 -1.003812460701101
000630 9b 21 27 00 e6 e2 f8 bf c7 f0 5c d1 c9 8c 83 3f
       -1.5553951269122084 0.009545876218560413
000640 d8 36 cc c0 ce d4 56 3f 85 94 f7 25 73 30 90 3f
       0.0013935107301138918 0.015809821312263956
000650 12 fa 1a c4 a5 a4 9b bf 40 2b 5e df 41 df 8b 3f
       -0.026995267957994847 0.013609423283715949
000660 ce d1 23 0b db b0 8e bf e1 70 43 e5 18 61 71 bf
       -0.014985762860740073 -0.00424298977688073
000670 7d 59 19 fd 93 af 82 bf 40 25 d5 ab 2c 56 8f 3f
       -0.009123951112240953 0.015301083558954987
000680 cd a4 9a 39 bc 6b 74 3f e6 8e a7 ca 8e b7 3f bf
       0.004985556844681227 -0.0004839633571960114
000690 05 2b 7a 1f b5 42 77 3f bc ab 31 0b 43 34 89 bf
       0.0056788516154806555 -0.0123067128935953
0006a0 35 af 4b 70 a2 46 6f 3f cd 71 17 0f 5f ed 69 bf
       0.003817860854146727 -0.0031649452800890155
0006b0 f9 41 e6 ff b1 53 4d bf e9 72 d4 d6 3e d4 87 bf
       -0.0008949870241839456 -0.011635294848525617
0006c0 30 48 c1 0d 5f 1c 77 3f 47 ab ee d2 7a 9a 61 bf
       0.0056422913585994355 -0.002148857012305969
0006d0 24 d1 39 d8 39 62 4b bf d7 1d 59 20 5a 32 75 bf
       -0.0008356840557568784 -0.0051749725876741514
0006e0 b7 7f 21 e6 c2 3b 80 3f 90 97 d3 85 fc c5 67 bf
       0.007926485679661128 -0.002902024467959792
0006f0 a4 bf 9b e6 79 fa 6b 3f 89 e2 56 fd b6 28 1d 3f
       0.003415334785010731 0.00011123291854787434
000700 a8 71 64 95 75 0f 80 3f 7e 22 17 e8 9b c3 68 bf
       0.007841986295311923 -0.0030229611445274354
000710 ef ab 70 d9 a4 b3 31 bf f7 a6 5b ef 33 88 2c 3f
       -0.00027010702746349443 0.00021768220874856362
000720 76 8d 50 17 82 a8 0e 3f 09 39 78 fa 7c 64 01 bf
       5.847594267318738e-05 -3.3173622167580594e-05
000730 8c a6 0f 4b 63 96 fc 3e 56 64 df 1c bf bb 30 bf
       2.7263119310483435e-05 -0.0002553311904854352
000740 22 14 3d 93 56 0a 37 3f 5d 1c 74 7b ed 17 0c 3f
       0.00035156835223332423 5.3584036715342084e-05
000750 ba e7 f7 b7 29 89 40 bf 97 4b d3 0d 1b ee 04 3f
       -0.0005046323494177698 3.9920998213503044e-05
000760 d7 08 65 49 7c 57 06 3f b5 3e 6d 06 92 19 11 3f
       4.2613487652791507e-05 6.523088232523562e-05
000770 24 fb 58 53 53 52 d6 3e ea 1c 24 5b f8 4d 33 bf
       5.321880328034213e-06 -0.00029456437472714805
000780 e0 a5 6e 5a ba 8b 20 3f 30 99 ce dc e8 14 23 3f
       0.00012623452968556128 0.0001455816513075774
000790 08 33 04 f0 91 71 3d bf 36 6d 24 a4 0a de 38 3f
       -0.00044927418640909643 0.00037944564623311765
0007a0 c9 db 5d 58 f8 1b 44 bf 74 82 fe b5 0f eb 27 3f
       -0.0006136858580550959 0.00018248144897105615
0007b0 ba fb 08 2c f4 91 44 3f e6 2c 2c 1a 36 f7 3d bf
       0.0006277506109383304 -0.00045723982673058353
0007c0 04 a4 cc 51 eb b5 17 bf 3b a6 e5 e3 32 06 54 3f
       -9.044884468480124e-05 0.0012221810316880427
0007d0 28 6b 50 84 f5 2c 5d bf a2 f9 94 f8 48 2b 3a 3f
       -0.0017807386041172688 0.0003993085052406369
0007e0 63 1f 1c 5b 80 b1 4c 3f 1b 92 e9 44 a8 02 55 3f
       0.0008756520021231225 0.001282371831302537
0007f0 ef 91 ed 2c 4a 2b 60 3f 72 6b c1 74 64 c0 44 3f
       0.0019737671604380595 0.0006332865245995813
